graph main_graph (
  %input.1[FLOAT, 1x256x61x1], exponents: [0]
) initializers (
  %conv4.weight[FLOAT, 3x3x64x64]
  %conv4.bias[FLOAT, 64]
  %conv2.weight[FLOAT, 3x3x16x32]
  %conv1.weight[FLOAT, 3x3x1x16]
  %conv2.bias[FLOAT, 32]
  %final_layer.weight[INT8, 1x1x64x2]
  %/Constant_output_0[INT64, 2]
  %final_layer.bias[INT32, 2]
  %conv3.weight[FLOAT, 3x3x32x64]
  %conv1.bias[FLOAT, 16]
  %conv3.bias[FLOAT, 64]
) {
  %/conv/relu/Relu_output_0 = Conv[activation = 'Relu', dilations = [1, 1], group = 1, kernel_shape = [3, 3], pads = [0, 0, 0, 0], quant_type = 'S8', strides = [1, 1]](%input.1, %conv1.weight, %conv1.bias)
  %/conv/relu_1/Relu_output_0 = Conv[activation = 'Relu', dilations = [1, 1], group = 1, kernel_shape = [3, 3], pads = [0, 0, 0, 0], quant_type = 'S8', strides = [1, 1]](%/conv/relu/Relu_output_0, %conv2.weight, %conv2.bias)
  %/conv/pool/MaxPool_output_0 = MaxPool[ceil_mode = 0, dilations = [1, 1], kernel_shape = [2, 2], pads = [0, 0, 0, 0], quant_type = 'S8', strides = [2, 2]](%/conv/relu_1/Relu_output_0)
  %/conv/relu_2/Relu_output_0 = Conv[activation = 'Relu', dilations = [1, 1], group = 1, kernel_shape = [3, 3], pads = [0, 0, 0, 0], quant_type = 'S8', strides = [1, 1]](%/conv/pool/MaxPool_output_0, %conv3.weight, %conv3.bias)
  %/conv/relu_3/Relu_output_0 = Conv[activation = 'Relu', dilations = [1, 1], group = 1, kernel_shape = [3, 3], pads = [0, 0, 0, 0], quant_type = 'S8', strides = [1, 1]](%/conv/relu_2/Relu_output_0, %conv4.weight, %conv4.bias)
  %/conv/pool_1/MaxPool_output_0 = MaxPool[ceil_mode = 0, dilations = [1, 1], kernel_shape = [2, 2], pads = [0, 0, 0, 0], quant_type = 'S8', strides = [2, 2]](%/conv/relu_3/Relu_output_0)
  %/global_avg_pool/GlobalAveragePool_output_0 = GlobalAveragePool[quant_type = 'S8'](%/conv/pool_1/MaxPool_output_0)
  %PPQ_Variable_0 = Transpose[perm = [0, 3, 1, 2], quant_type = 'S8'](%/global_avg_pool/GlobalAveragePool_output_0)
  %/Reshape_output_0 = Reshape[quant_type = 'S8'](%PPQ_Variable_0, %/Constant_output_0)
  %30 = Gemm[activation = 'Linear', alpha = 1, beta = 1, quant_type = 'S8', transB = 0](%/Reshape_output_0, %final_layer.weight, %final_layer.bias)
  return %30
}


initializers value:
%conv4.weight, shape: [3, 3, 64, 64], exponents: [-9], docString: layout ==> N16HWC16, 
value: array([… dtype=float32)
%conv4.bias, shape: [64], exponents: [-12], docString: layout ==> UNK, 
value: array([ … dtype=float32)
%conv2.weight, shape: [3, 3, 16, 32], exponents: [-9], docString: layout ==> N16HWC16, 
value: array([ … dtype=float32)
%conv1.weight, shape: [3, 3, 1, 16], exponents: [-8], docString: layout ==> N16HWC16, 
value: array([… dtype=float32)
%conv2.bias, shape: [32], exponents: [-9], docString: layout ==> UNK, 
value: array([… dtype=float32)
%final_layer.weight, shape: [1, 1, 64, 2], exponents: [-9], docString: layout ==> N16HWC16_UNALIGNED, 
value: array([  7,  29,  48,  30, -39, -28, -50,  -3, -33,  47,  35,  48,  55,
       -19,  24, -47,  30, -72, -20, -62,  17,  45, -53,  43,  23,  47,
       -46, -39,  28,  52,  38,  46, -35, -34,  28,  12, -12, -54,  66,
       -33,  25, -41, -60, -32, -25,  41,  -3, -37, -18,  52,  54,  73,
        -2, -64, -31,   8,  58,  51,  29,  77, -59,  56, -18, -56, -35,
       -26, -46, -10, -39,  56,  -2,  36, -27,  -1,  44,  20,  16,  62,
       -26, -59,  21,  28, -30, -24, -42,  55, -52, -34, -29, -60,  27,
       -48,  46, -25,  40,  46, -48,  19,  39,  32, -39,  73,  51, -42,
       -60, -41,  35,  -3, -24, -14,  16, -32,  15,  48, -31, -34, -28,
         2, -57, -53,  -6,  54, -56,   2,  64,  36,   8, -22], dtype=int8)
%/Constant_output_0, shape: [2], exponents: [0], docString: layout ==> UNK, 
value: array([ 1, -1])
%final_layer.bias, shape: [2], exponents: [-12], docString: layout ==> UNK, 
value: array([-283, -241], dtype=int32)
%conv3.weight, shape: [3, 3, 32, 64], exponents: [-9], docString: layout ==> N16HWC16, 
value: array([… dtype=float32)
%conv1.bias, shape: [16], exponents: [-8], docString: layout ==> UNK, 
value: array([… dtype=float32)
%conv3.bias, shape: [64], exponents: [-11], docString: layout ==> UNK, 
value: array([ … dtype=float32)


values info:
%/Reshape_output_0[FLOAT, 1x64], exponents: [-4]
%/global_avg_pool/GlobalAveragePool_output_0[INT8, 1x1x1x64], exponents: [-3]
%/conv/relu_3/Relu_output_0[FLOAT, 1x122x24x64], exponents: [-4]
%/conv/relu_2/Relu_output_0[FLOAT, 1x124x26x64], exponents: [-3]
%/conv/pool/MaxPool_output_0[FLOAT, 1x126x28x32], exponents: [-2]
%30[INT8, 1x2], exponents: [-3]
%/conv/relu/Relu_output_0[FLOAT, 1x254x59x16], exponents: [0]
%/conv/pool_1/MaxPool_output_0[FLOAT, 1x61x12x64], exponents: [-4]
%/conv/relu_1/Relu_output_0[FLOAT, 1x252x57x32], exponents: [-2]
%input.1[FLOAT, 1x256x61x1], exponents: [0]
%PPQ_Variable_0[FLOAT, 1x64x1x1], exponents: [-4]


test inputs value:



test outputs value:
